lora_test_output/checkpoint-5/adapter_model.safetensors (safetensors, 815504 bytes, 36 tensors)

base_model.model.transformer.h.0.attn.c_attn.lora_A.weight f4 [4, 768]
000000 ff 39 dc 3c 1d c2 a3 3c 72 3a 60 3c d6 52 49 bb
       0.026883123 0.019990021 0.013685809 -0.003071954
000010 ae aa 09 3c 87 91 96 bc f9 ca 29 bc cd 26 d1 bc
       0.00840251 -0.01837994 -0.010363334 -0.025531197
000020 65 14 9c 3c 95 f9 a1 3b 69 35 f4 3c 1c 31 ab bb
       0.019052694 0.0049430826 0.029810624 -0.00522436
000030 b8 d2 da bc 36 13 b8 bb 50 fd c6 3c 16 3f 54 bb
       -0.026711807 -0.0056175245 0.02429071 -0.0032386235
000040 6e c1 c2 3c 55 16 51 bb 7b 3c ab 3b a3 af 72 bc
       0.023773875 -0.003190418 0.0052257157 -0.014812383
000050 59 e5 5f bb f7 cf bd bb 81 0e 9e bc 6e 9f c6 bc
       -0.0034163801 -0.0057926136 -0.019294025 -0.024245944
000060 df d0 a6 bc ad 6d c9 3a ba 4f 68 3c fa 2c e0 bc
       -0.02036327 0.0015367769 0.014179165 -0.027365196
000070 15 b1 e4 bc 1b 1e a4 bb a5 ff d9 3b e5 cb 92 3a
       -0.02791647 -0.0050084717 0.0066527897 0.0011199681
000080 f5 67 88 bb 5b a6 e3 3c 7f 19 a1 bc 33 ac 95 3c
       -0.0041627833 0.027789285 -0.019665478 0.018270588
000090 19 2d f9 3a ff 20 0f 3d f7 03 af bc 00 3b 38 3b
       0.0019010633 0.034943577 -0.021364195 0.0028111339
0000a0 b6 8b f4 3c 88 e0 85 bc 26 68 d7 bc 08 5a 05 bd
       0.029851776 -0.016342416 -0.026294779 -0.032556564
0000b0 f4 5f d1 bc d2 1c be bc 46 a2 f5 bc 6c e9 ba bc
       -0.02555845 -0.023207102 -0.029984605 -0.022816382
0000c0 87 7a 18 bc 75 38 53 bb 0e 58 02 3c 19 38 97 b9
       -0.009306557 -0.0032229696 0.007955564 -0.0002884276
0000d0 d2 99 02 3d 97 61 0f 3d f2 06 0b 3c cb 93 4f 3b
       0.031884976 0.03500518 0.008485543 0.0031673785
0000e0 be 48 90 3c ff 56 07 3d e5 d1 fa 3c 58 0e d7 bb
       0.017612811 0.03304195 0.030617664 -0.006562989
0000f0 cc b0 1b 3b 7b 80 67 3b 99 82 09 bd d7 8f d6 bc
       0.0023756502 0.0035324383 -0.033571813 -0.026191635
000100 5d c6 ca 3b d0 ae fb bc cc ef 55 bb f6 e1 bc bc
       0.0061881975 -0.030723006 -0.003264415 -0.023056965
000110 20 ff f9 bb eb 5f 07 bd 27 57 d2 3c af e9 ee 3c
       -0.00762929 -0.03305046 0.025676323 0.029164163
000120 90 fe c9 bc 28 a8 1d 3c b7 39 38 3c 25 2a 0b bc
       -0.024657518 0.009622611 0.011244229 -0.008493935
000130 3e 30 da 3b e0 2d 3c ba d3 56 e5 3b 48 61 4b bb
       0.006658583 -0.0007178467 0.0069988756 -0.0031033326
000140 70 b2 b8 bc 46 88 b4 3c 12 03 f5 3a 7b fd fe 3a
       -0.022546023 0.022037636 0.0018692932 0.0019454205
000150 0f 52 a1 bc 54 a5 ce bc 62 18 84 3c c6 d0 b6 3c
       -0.019692449 -0.025225319 0.016124908 0.022316348
000160 dc fa a2 3a 6c 52 e4 bc 02 ba e1 bc a8 9d 63 bc
       0.0012434381 -0.027871333 -0.027554516 -0.013892569
000170 01 ea 07 3d d7 ff fe bc 42 9f d5 bb ee 93 d7 bc
       0.033182148 -0.031127853 -0.006519229 -0.026315656
000180 9c d4 36 bb 18 5e 83 ba ad c7 33 3c a6 fa 5e bc
       -0.002789772 -0.0010022549 0.010972899 -0.013609564
000190 3d c0 87 3c b6 33 10 3d 6b f3 92 3a f9 03 01 3b
       0.016571159 0.035205565 0.001121146 0.0019686206
0001a0 2e 41 4e 3b 8c 36 c2 3c 26 b1 a8 bc ed 4d 20 bc
       0.0031471956 0.02370765 -0.020592283 -0.009784204
0001b0 8c ee c4 3c 9c 26 70 3c 0c 96 4a 3c c9 4c d0 3c
       0.02403953 0.014657643 0.0123648755 0.025427239
0001c0 4e 8c 83 3c 20 b5 0f 3d 54 90 a8 bc 1d f2 11 3d
       0.016058113 0.035084844 -0.020576634 0.035631288
0001d0 c5 32 10 bd e1 9c 06 3c 5b 31 47 bc 91 e0 7d bc
       -0.035204668 0.008216114 -0.012157763 -0.015495435
0001e0 52 a2 11 bd e6 01 b2 bc c1 c5 a1 3c 43 b4 d3 bc
       -0.03555519 -0.02172942 0.019747617 -0.025842791
0001f0 ec cb 90 3c 67 3b bd 3c 1e ad 0f 3c e9 36 df 3c
       0.017675363 0.023099614 0.008769302 0.027247863
000200 07 06 da ba 1d b9 99 3c 53 cc c8 3c fb cb 04 3b
       -0.0016633876 0.018765027 0.024511492 0.0020263183
000210 e9 04 40 3c db b8 34 3c 0e b0 21 bc b3 39 89 bc
       0.011719921 0.011030401 -0.009868635 -0.016751146
000220 39 27 06 bd 1d 98 e2 3c 0e 3c 82 3c d8 0d 9c 3c
       -0.03275225 0.027660424 0.015897777 0.01904957
000230 6c b6 ee 3b 29 80 06 bc 8b a2 82 bc 1f cc 0f bc
       0.00728493 -0.008209267 -0.015946647 -0.008776694
000240 cd 20 eb bc 75 ca f2 3c 5e b9 e9 3c 08 a6 e7 3c
       -0.028702164 0.029637555 0.028530773 0.028277412
000250 53 92 ec 3c 49 f1 aa bc 65 38 d4 3b 6f c3 3c 3c
       0.028878367 -0.020867007 0.0064764493 0.011521204
000260 9c b5 0b 3d 72 65 5b 3c 71 e5 10 3d 88 5d 1c 3c
       0.034108743 0.013390886 0.035375062 0.009543784
000270 6e 95 bd 3c d2 fb f5 bc f5 84 04 bc 2d 6f 8d bc
       0.023142543 -0.030027304 -0.00808834 -0.017264927
000280 96 18 af bc dd 64 02 3b 64 1b f2 3c 70 02 eb bc
       -0.021374028 0.0019896545 0.029554076 -0.028687686
000290 bf 8d 23 bb cf 32 e5 bc 3f 78 17 3c 89 92 41 ba
       -0.0024956313 -0.027978329 0.0092449775 -0.0007384201
0002a0 10 31 dd 3c 1a 54 a5 bb 96 81 bd 3c ea 4f d9 bc
       0.027000934 -0.005045426 0.02313308 -0.026527364
0002b0 81 11 9e 3c 14 ab e0 bc 15 14 8b 3c 67 54 58 3c
       0.019295456 -0.027425326 0.01697735 0.013203717
0002c0 9a 03 7b 3c 2f 9f ad bc e7 15 fd 3c 1c 54 42 3c
       0.015320683 -0.021194069 0.030894233 0.011860874
0002d0 f4 be ab bc ed ce 10 bc 40 99 ab 3c 9b 49 54 3b
       -0.020965077 -0.008838397 0.020947099 0.0032392505
0002e0 23 64 03 3d 25 7a f0 bc 4b 83 20 3c 54 cc ae bb
       0.03207792 -0.029355118 0.009796928 -0.0053344164
0002f0 64 a6 0c 3d 2a 4d 8e bc 36 61 ca 3b d0 65 5a 3c
       0.03433837 -0.017370779 0.006176139 0.013329938
000300 f6 b0 76 3b d5 eb 07 3c dd 1c af bb 2a 3d d9 ba
       0.0037642098 0.008295973 -0.005344017 -0.0016574014
000310 c3 0a d4 bb 71 e2 81 bb 4e 23 06 3d 8e 1f 04 bd
       -0.0064710095 -0.0039637615 0.032748513 -0.032256655
000320 af e3 b5 3c 99 4b 0a 3b 1f 84 89 bc e0 f4 a3 3c
       0.022203295 0.0021102189 -0.016786633 0.020014226
000330 1c 64 01 3d ae 4e 38 3c 15 3d 03 3c 89 23 bf 3c
       0.031589612 0.011249227 0.008010169 0.023332374
000340 25 5c 11 bd 45 fc da 3c a6 ab 67 bc b2 37 c7 bb
       -0.035488266 0.02673162 -0.014140045 -0.0060796374
000350 f1 d1 82 39 17 6d 43 bc 00 2d c5 3c cf 26 e8 bc
       0.0002495195 -0.0119278645 0.02406931 -0.028338818
000360 22 15 da bc ad 99 bd 3c cb c8 d4 bc 75 af ce 3c
       -0.026621405 0.023144567 -0.025974652 0.025230149
000370 0e 2f 07 3d e0 f1 99 bb 7f 0a b4 bb 6e f4 b4 3c
       0.03300386 -0.004698023 -0.0054944153 0.02208921
000380 98 04 7e 3c bb b3 60 3c d3 40 07 3d 25 16 ff 3b
       0.015504025 0.013714726 0.033020806 0.0077846223
000390 a3 cc 02 bd 23 fc 24 3c 7d 10 c9 3b db d8 8f bc
       -0.031933438 0.01006988 0.0061359988 -0.01755946
0003a0 59 4c cd bc 40 2b 9d 3b 79 02 f1 3c a5 17 0f bd
       -0.02506082 0.0047964156 0.029420124 -0.03493466
0003b0 db aa b0 bc d4 a9 0d 3d d1 c8 40 bc 63 c1 3f 3c
       -0.021565845 0.03458579 -0.011766628 0.011703822
0003c0 79 ef fc 3b ba 54 94 bb 20 85 9a 3c 76 95 1b 3c
       0.007718977 -0.0045267018 0.018862307 0.0094960835
0003d0 62 89 f9 bc be 5f 1b bc 0d a7 f9 3c 1c 91 01 3c
       -0.030461017 -0.009483276 0.030475164 0.007908132
0003e0 d2 f3 b3 bc f8 fa 16 bc 96 9e 07 3d 9c 57 a3 bb
       -0.021966849 -0.009215109 0.033110224 -0.004984809
0003f0 d4 85 2b 3b 19 ae 9a 3c 5c 55 03 bd f9 1f ed 3c
       0.0026172297 0.018881844 -0.032063827 0.02894591

base_model.model.transformer.h.0.attn.c_attn.lora_B.weight f4 [2304, 4]
000000 23 a1 76 38 89 14 41 38 b7 1e 56 b8 ff b8 2e b8
       5.880104e-05 4.603391e-05 -5.105018e-05 -4.1657124e-05
000010 e1 0f 7b b8 7e 62 16 38 ad de 88 38 36 29 62 38
       -5.985785e-05 3.5854515e-05 6.526462e-05 5.392098e-05
000020 57 3a 83 b8 cd 58 47 38 98 06 e9 36 af 99 75 37
       -6.2574334e-05 4.7528e-05 6.9447087e-06 1.463892e-05
000030 33 2c 8a b7 9b e5 69 b8 cb 47 7b 38 7b 20 a0 b8
       -1.6471464e-05 -5.5765366e-05 5.9909926e-05 -7.6354445e-05
000040 8e 45 0b b8 30 6f 8e 38 0f 76 ea 37 0e f6 96 38
       -3.320496e-05 6.791798e-05 2.7949949e-05 7.1983886e-05
000050 d3 5d 86 b8 26 11 8c 38 ed 4f 82 38 5b a0 9c 38
       -6.407094e-05 6.678914e-05 6.2137704e-05 7.468528e-05
000060 ca 6e c2 37 46 69 82 38 d2 1f 85 b8 41 6c 35 38
       2.3178192e-05 6.218492e-05 -6.347861e-05 4.3254582e-05
000070 66 fd 71 38 a1 96 8a b8 ad c9 66 38 c5 dc 84 b8
       5.7694873e-05 -6.6084096e-05 5.50241e-05 -6.335372e-05
000080 9a bd 01 38 cf 09 86 37 d5 fd 7d b8 2d c4 66 b8
       3.0932577e-05 1.5978612e-05 -6.05563e-05 -5.5018976e-05
000090 5f 8e 5a 38 fe a0 9e b8 ae 48 9d 38 b1 00 c7 b7
       5.2107844e-05 -7.564014e-05 7.499881e-05 -2.372297e-05
0000a0 ee b0 48 38 eb a7 3f b8 b1 d4 9e 37 63 44 4d b8
       4.7848494e-05 -4.5694334e-05 1.893411e-05 -4.89395e-05
0000b0 3a 4c 9a b8 c7 40 4d 38 7a a4 2b b8 46 db 5e 38
       -7.3574905e-05 4.8936137e-05 -4.0922758e-05 5.313314e-05
0000c0 ef 61 6f b8 5e b0 91 38 12 9b 7e 38 2a fe 7e 38
       -5.7073248e-05 6.94699e-05 6.070274e-05 6.0795028e-05
0000d0 55 fd cc 37 8f 88 20 b8 84 1e 23 38 e5 9c 80 38
       2.4436662e-05 -3.8274153e-05 3.889065e-05 6.1327395e-05
0000e0 7a 34 ae b8 af 6b 94 b8 56 4d 82 38 25 fb 2a 34
       -8.306741e-05 -7.0772476e-05 6.213288e-05 1.592385e-07
0000f0 ec a5 92 38 aa 33 99 b8 0d 83 97 38 10 9b 4f b8
       6.992728e-05 -7.305232e-05 7.224651e-05 -4.949706e-05
000100 71 da 03 36 a6 9a 16 b7 7a 14 a3 b8 1f b4 6d b8
       1.964767e-06 -8.976704e-06 -7.77626e-05 -5.6672954e-05
000110 8a 3d 17 38 f3 49 28 38 a7 e1 a3 38 74 c8 97 38
       3.6058518e-05 4.0123192e-05 7.814477e-05 7.2375784e-05
000120 84 17 71 38 29 3a 60 38 ba 7d 43 b8 ef 5d 8b b8
       5.748078e-05 5.3459928e-05 -4.6608715e-05 -6.645533e-05
000130 47 83 32 37 0c dd a2 38 12 b0 75 b8 2a 90 07 b8
       1.0640192e-05 7.765935e-05 -5.857653e-05 -3.232077e-05
000140 20 c1 8c b8 36 3f 7d 38 3a 88 8a 38 26 a5 44 38
       -6.7116925e-05 6.037877e-05 6.605727e-05 4.6883848e-05
000150 31 5f 6f b8 76 06 81 34 4c ae 1f 38 02 52 a0 38
       -5.7070694e-05 2.4032823e-07 3.807088e-05 7.64467e-05
000160 87 a9 68 38 a6 7c 97 b8 70 01 90 b8 51 e5 88 b8
       5.5470995e-05 -7.223459e-05 -6.866723e-05 -6.527699e-05
000170 e2 fd 7b 38 93 71 9e b8 fb 0f 8f 38 01 7a 7e b8
       6.007951e-05 -7.555182e-05 6.821748e-05 -6.0671944e-05
000180 08 b5 f0 36 63 46 82 b8 30 9d 31 b8 7a 55 86 b8
       7.173632e-06 -6.2119936e-05 -4.234648e-05 -6.405539e-05
000190 2c cf 95 b8 7e 0d 70 38 33 89 9c b8 5b 2c 4d 38
       -7.1434624e-05 5.7233025e-05 -7.464215e-05 4.8917118e-05
0001a0 86 44 02 38 b8 d5 51 38 4b 6a 80 b8 64 fe 86 b8
       3.1058233e-05 5.0028524e-05 -6.123314e-05 -6.437002e-05
0001b0 ab 40 a6 b8 81 14 35 b8 1a 00 95 38 86 b9 87 b8
       -7.927542e-05 -4.317286e-05 7.1048926e-05 -6.471858e-05
0001c0 7b 4c 99 38 c6 0d 0e b8 bd 06 8c b8 51 f3 4e b8
       7.309854e-05 -3.3868266e-05 -6.676975e-05 -4.9340833e-05
0001d0 f0 0a 88 b8 85 97 0c 38 b4 85 3f 38 37 91 22 b8
       -6.4870226e-05 3.3519715e-05 4.566247e-05 -3.875905e-05
0001e0 40 4f 33 b8 58 b3 00 38 54 d5 b5 37 9d 3a 3a 38
       -4.2750733e-05 3.0684605e-05 2.167622e-05 4.4400444e-05
0001f0 d0 f3 74 b8 8a 35 2b b8 40 48 3e 38 63 0a 81 38
       -5.84012e-05 -4.081944e-05 4.5366818e-05 6.153134e-05
000200 73 51 8e 38 de 98 3a b8 1b 02 79 36 de 07 2e b8
       6.786259e-05 -4.4488224e-05 3.7105117e-06 -4.149216e-05
000210 52 0b 5f b8 96 a3 a0 38 dd 0c a8 37 2f d6 8e 38
       -5.3177886e-05 7.659865e-05 2.003315e-05 6.8109824e-05
000220 61 5d 7d b8 02 ae 5c 38 56 69 56 38 a7 64 7b 38
       -6.0406866e-05 5.2614145e-05 5.1119678e-05 5.9936803e-05
000230 70 22 ab b7 fd cd 58 38 73 18 a6 b7 98 e7 22 b8
       -2.0400825e-05 5.1690255e-05 -1.9800127e-05 -3.88395e-05
000240 d0 1a 78 38 31 13 fd 37 6c 26 96 b8 d3 d6 25 b8
       5.915278e-05 3.0168887e-05 -7.159714e-05 -3.9539136e-05
000250 b3 9f aa b8 94 ac 84 38 44 e6 9b b8 6a 7a 8d b8
       -8.135978e-05 6.326396e-05 -7.433866e-05 -6.746205e-05
000260 4f bb 11 38 c8 01 17 b7 78 de 9e b8 b2 12 02 b8
       3.474514e-05 -9.000716e-06 -7.575465e-05 -3.1011827e-05
000270 f3 9f 53 38 14 e1 3c 38 b5 18 59 b8 6d b0 84 b8
       5.0455285e-05 4.5032313e-05 -5.1759842e-05 -6.327112e-05
000280 2f 7c da b7 cd 9d a3 b8 9b e8 8a 38 14 83 31 38
       -2.6045453e-05 -7.8018384e-05 6.623679e-05 4.2322165e-05
000290 2f f6 30 b8 c2 13 2e 38 ec 65 76 38 ca ab 50 38
       -4.2190946e-05 4.1503234e-05 5.8745893e-05 4.9751055e-05
0002a0 0e 21 3d b8 20 50 33 b8 45 1a 7b 38 07 90 8b 38
       -4.5091896e-05 -4.2751548e-05 5.986753e-05 6.654864e-05
0002b0 a5 1f 53 38 44 38 9a 38 4f f7 6e b8 92 36 3c b8
       5.033579e-05 7.3537725e-05 -5.6973946e-05 -4.4873515e-05
0002c0 a5 d6 71 38 a9 25 36 b8 c8 a8 93 b8 67 60 a2 38
       5.765878e-05 -4.3427255e-05 -7.040944e-05 7.742718e-05
0002d0 60 16 8b b8 8a 8c 0a b8 0b 21 88 38 e4 44 ef b7
       -6.632204e-05 -3.303265e-05 6.49114e-05 -2.85231e-05
0002e0 2e 35 a3 38 9b 68 a7 36 ca 36 a6 b8 09 70 44 b8
       7.782351e-05 4.9891655e-06 -7.925702e-05 -4.6834382e-05
0002f0 71 bd 58 38 a4 a9 44 38 a2 71 5e b8 bc ec 81 b8
       5.1674844e-05 4.688803e-05 -5.3034753e-05 -6.1952946e-05
000300 c5 e5 9b b8 fd c2 3d b8 69 ae 25 38 1c 09 4b b8
       -7.433774e-05 -4.524271e-05 3.9501498e-05 -4.8407455e-05
000310 be bf 93 b8 37 70 57 38 bd f2 85 38 f8 d6 63 38
       -7.045221e-05 5.1364503e-05 6.387148e-05 5.4321223e-05
000320 4f 3b 88 b8 ef 02 25 b8 17 13 63 38 6f 70 77 38
       -6.4960324e-05 -3.9341798e-05 5.4138796e-05 5.89941e-05
000330 64 84 73 b8 ed 89 93 38 80 47 4d b8 ac d2 82 38
       -5.8059013e-05 7.035197e-05 -4.89424e-05 6.238124e-05
000340 d3 19 26 b8 eb bf 0f b8 86 d0 f9 37 3c 43 95 38
       -3.9601535e-05 -3.4272594e-05 2.9780214e-05 7.117397e-05
000350 4d 1b 31 b8 23 22 84 38 2e 6a a2 b8 94 00 93 38
       -4.2225514e-05 6.300609e-05 -7.7445395e-05 7.009614e-05
000360 69 61 47 38 0e 37 98 b8 4e f7 3c b8 da 7e 8a b8
       4.7536018e-05 -7.2581795e-05 -4.5053013e-05 -6.603981e-05
000370 36 87 9a b8 2f 05 52 38 bf 95 92 38 be 36 27 38
       -7.368477e-05 5.007273e-05 6.989715e-05 3.9866885e-05
000380 61 25 94 b8 2f fe 9f 38 fc 8d a0 b8 58 49 25 38
       -7.064152e-05 7.629056e-05 -7.655841e-05 3.9407372e-05
000390 b6 5c 47 b8 65 4e 3b 38 8c a0 d4 35 a5 6a 7d 38
       -4.753164e-05 4.4657285e-05 1.5841956e-06 6.041922e-05
0003a0 66 ff 33 b8 8b c0 c2 b7 40 bf 1b 38 a5 4e 9a 38
       -4.2914784e-05 -2.3216262e-05 3.7132995e-05 7.357941e-05
0003b0 ed 22 8a 38 55 92 aa b7 5f e8 82 b8 53 21 94 b8
       6.586858e-05 -2.033372e-05 -6.2421655e-05 -7.063397e-05
0003c0 bf f0 86 38 6f 57 8e 37 bd 42 79 b8 6c 3d 7f b8
       6.4344604e-05 1.6968434e-05 -5.942838e-05 -6.085394e-05
0003d0 ec e0 d6 b7 3b 0a 86 b8 7e a0 80 38 4e f9 86 38
       -2.5615525e-05 -6.3915235e-05 6.1334096e-05 6.4360545e-05
0003e0 e7 47 71 38 96 f9 5f b8 ad 82 17 b8 81 e7 82 b8
       5.7525842e-05 -5.3399788e-05 -3.6122907e-05 -6.242004e-05
0003f0 ed 31 3a 38 a8 66 16 b7 78 a4 b2 b7 dc 1b 7a b8
       4.4392353e-05 -8.964598e-06 -2.129584e-05 -5.963059e-05

base_model.model.transformer.h.0.attn.c_proj.lora_A.weight f4 [4, 768]
000000 e2 9f 27 bb af 87 4c bc d9 8a 03 bb 6d c6 5f 3b
       -0.0025577475 -0.012483521 -0.0020071773 0.003414537
000010 13 da e2 3c e5 32 0c 3d ee 56 04 3d dc a6 8c ba
       0.027691877 0.034228224 0.032309465 -0.001073088
000020 46 80 bc 3c 31 d9 07 bd 72 ca 88 3b a8 0e d9 bc
       0.023010384 -0.033166114 0.004174524 -0.026496246
000030 b3 19 0e bd 56 85 5f 3a 4b 8a 6d 3c 0d 20 82 3b
       -0.034692477 0.00085266435 0.014498304 0.003971106
000040 a2 a0 10 3d 2c 45 7c bc 84 88 07 3d 32 1c ed bc
       0.03530944 -0.015397351 0.033089176 -0.028944109
000050 11 c0 cd bb 1c b7 cd bb 31 ec 11 3d cd 8f d9 3c
       -0.0062789996 -0.006277932 0.03562564 0.026557827
000060 16 37 de 3c 23 bd 61 bb fb e8 94 3c 0a 0c b4 bc
       0.027125876 -0.003444501 0.0181775 -0.021978397
000070 52 30 06 bd db b4 cb 3c 44 94 f5 3a 26 18 d5 bc
       -0.032760926 0.024866512 0.0018736203 -0.026012491
000080 45 2d 1a bc 7f d8 03 bd 2e c1 86 3c 3e 70 0f 3d
       -0.009410207 -0.03218889 0.016449537 0.035019152
000090 95 89 ce bb 28 63 4a bc 30 3a 0e b9 47 76 a4 3c
       -0.006303022 -0.012352742 -0.00013563852 0.02007593
0000a0 83 dc 7c 3c 4f 8e 95 bc d8 00 60 3c 28 d5 09 bd
       0.015433433 -0.018256335 0.013672076 -0.033650547
0000b0 c5 b4 d8 3c 68 33 f1 3c 19 dc 0c bd c9 20 f5 3c
       0.026453385 0.029443458 -0.03438959 0.02992286
0000c0 6d c2 07 bd 4b e2 08 3c a0 4b e2 bb 06 c3 c5 bc
       -0.033144403 0.008354734 -0.006905988 -0.024140846
0000d0 21 d1 9e 3b 36 6b db bc 31 19 01 bd 25 8f a0 bc
       0.0048467075 -0.02678452 -0.031518165 -0.019599507
0000e0 b6 2e 08 3d 1c d3 2d 3c f3 c7 71 bb 26 76 c6 3c
       0.033247672 0.010609414 -0.003689286 0.02422626
0000f0 0e 08 10 3d d6 2e 04 3a 96 72 6d 3c d9 2e cc bc
       0.03516393 0.00050423795 0.014492651 -0.024924682
000100 2a e4 e6 3c 4b 2c 90 3b cf d8 fe 3c 94 3b 08 bd
       0.028184969 0.0043998114 0.031109242 -0.033259943
000110 b6 06 cd 3c 5e ba 25 3b 06 fd 0e bd 75 0d df ba
       0.025027614 0.0025288085 -0.03490927 -0.001701756
000120 6d 85 df bc ba 96 b5 3c 55 66 26 3c 0c 84 10 3d
       -0.027285302 0.022166599 0.010156234 0.03528218
000130 86 d5 a8 3b f9 a0 b2 3c a9 96 42 3c e9 20 0e bd
       0.005152407 0.021805273 0.0118767405 -0.034699354
000140 52 ba 84 3c d8 a1 b9 3b e6 a9 94 ba 49 69 06 bd
       0.016202126 0.005665045 -0.0011342138 -0.03281525
000150 e5 0c d8 bb 55 de 56 bc 59 10 0d bd 7b a4 06 bd
       -0.006593334 -0.0131145315 -0.03443942 -0.032871705
000160 25 a5 8a 3b 1b 46 d2 bc f0 4c 83 bc 4c 1a 71 3c
       0.0042311125 -0.025668195 -0.016027898 0.014715742
000170 a0 0f 0c 3d 87 29 0e bd cb 55 fe 3c 62 db de ba
       0.03419459 -0.034707572 0.031046769 -0.0017002637
000180 4e 97 f3 3b b5 c3 d8 bc ee ab 13 3d 27 28 e9 bc
       0.0074338084 -0.026460508 0.036052637 -0.028461529
000190 84 45 d0 bc 81 7c 1f 3c bb 27 06 3c e9 e9 d1 3c
       -0.025423773 0.009734274 0.008188183 0.025624232
0001a0 95 01 4e 3b c4 22 30 3b e5 be 07 bd d2 72 09 bd
       0.0031434048 0.002687619 -0.033141036 -0.033556767
0001b0 31 18 95 3c f8 d2 27 bb f3 13 d1 bc 55 d2 33 3c
       0.018200012 -0.0025607925 -0.025522208 0.01097544
0001c0 72 10 89 3c 15 03 bd 3c 0e 45 7c bc 18 5f 91 bc
       0.016731475 0.023072759 -0.015397323 -0.01774554
0001d0 fa 07 82 3c d3 55 12 3d 78 b2 e5 3c 11 07 ba ba
       0.015872944 0.03572638 0.028039202 -0.001419278
0001e0 bd e0 11 bc ac ff 86 3c 8f 73 91 3c d0 74 ce bc
       -0.008903679 0.016479336 0.017755298 -0.025202185
0001f0 9e 5a e8 bc 93 ee 4e bc 5f f5 6b 3c ea 02 bb bc
       -0.028363522 -0.012630123 0.014401763 -0.022828538
000200 2e 42 a3 bc 00 0a ef bc 37 19 fa 3c f9 b8 2b bc
       -0.019929018 -0.029179573 0.030529601 -0.010481113
000210 5f e7 58 bc 0c e7 a7 3a e2 84 35 bc 3d 29 fd 3c
       -0.013238757 0.0012809946 -0.011079045 0.030903453
000220 56 02 e2 3a 3f db c2 bc c7 dc 91 bc 83 73 ba bc
       0.0017243128 -0.023786185 -0.01780547 -0.022760158
000230 af 45 3f bc 87 b9 79 3c 77 f3 8a 3c 0e c9 cf 3c
       -0.011674329 0.015241987 0.016961796 0.025364425
000240 ef 95 9b 3c 77 c3 cd 3c df 0c 95 bc 59 51 94 3c
       0.018992392 0.025117619 -0.018194614 0.018105196
000250 8d 69 5b bc e7 bb 1d bb c7 ba 0f 3c 74 a3 26 bb
       -0.0133918645 -0.0024068297 0.0087725585 -0.0025427015
000260 ad 51 5b 3b c5 87 91 3c 9c 26 2d 3b 57 a3 ab bc
       0.003346543 0.017764935 0.0026420718 -0.02095191
000270 9c 0f 11 bb 9d e3 df 3c 98 c6 ac 3c 17 ad 8b ba
       -0.0022134548 0.027330214 0.02109079 -0.0010656443
000280 d7 65 c8 bc c9 84 ed 3c 20 66 08 bd 71 ed 2a 3c
       -0.024462624 0.028993981 -0.03330052 0.010432587
000290 e4 3e 11 bd c1 07 66 bc 31 51 99 3c e2 34 9b 3c
       -0.035460368 -0.014039935 0.018715473 0.018946115
0002a0 8c 4e e9 ba 36 41 d9 3c 6c f8 0b 3d 9b 02 08 3d
       -0.0017799898 0.026520353 0.03417246 0.03320561
0002b0 3d 03 a4 bc ff 9a b7 3c 7a 8f ef 3c 88 00 60 3c
       -0.020021075 0.022412775 0.02924322 0.013672002
0002c0 b4 61 f5 bc 42 cf be bc 53 da 8f 3c aa 37 fd 3b
       -0.029953815 -0.023292188 0.01756016 0.007727583
0002d0 66 59 0a bd 91 27 49 3c 31 f6 29 3b 97 9d b0 bc
       -0.033776663 0.0122775 0.0025934095 -0.02155952
0002e0 75 6e fa 3c 1d 0a c2 bc 48 b5 60 bc 4c d9 a7 bb
       0.030570248 -0.023686463 -0.013715096 -0.0051223394
0002f0 a7 c2 0d 3b 0b ac 0f 3d df 65 ab bb 68 48 f7 bc
       0.0021630914 0.035076182 -0.00523065 -0.030185893
000300 0e 3a cc bc 43 f9 58 bc e0 7b d4 bb 81 30 fe bc
       -0.024930026 -0.013243022 -0.0064844936 -0.031028988
000310 86 14 95 3c 61 d0 d2 ba d5 65 74 bc df 4f 04 bd
       0.018198263 -0.001608383 -0.014916857 -0.032302734
000320 39 5f e3 ba a8 dc 88 3c fd d3 15 ba 09 5d c5 3c
       -0.0017347104 0.01670678 -0.00057154876 0.024092214
000330 3f 51 35 3c de 9d 12 bd 00 ce a1 3c 6a 70 a1 3c
       0.011066734 -0.035795085 0.019751549 0.019706924
000340 6a aa 90 bc 85 ca b0 bb a6 3a e3 3b c4 71 a7 bc
       -0.017659385 -0.005395236 0.0069344817 -0.02043999
000350 e1 ae ec bc cc 82 69 bc 7c 4e ea 3b 85 e2 e1 3c
       -0.028891983 -0.014252376 0.0071504693 0.027573833
000360 ab 04 af 3c 53 c8 b1 3c df 3d 7a bc bb 86 02 bd
       0.02136453 0.021701967 -0.01527354 -0.03186677
000370 36 52 10 bc 3d c4 d5 3c 8d fa 07 bd a4 ee fb bc
       -0.008808663 0.02609455 -0.03319793 -0.030753441
000380 a5 58 76 bc 43 b4 7a bc 0d fb 8c bc 11 6d b3 bc
       -0.015035783 -0.015301767 -0.017209554 -0.021902593
000390 e5 7a cc 3b 40 9b a8 3c 34 97 de bc b1 db f1 bc
       0.006240236 0.020581841 -0.027171709 -0.029523702
0003a0 53 a4 a0 3b 0c c2 82 bc e6 21 32 3c c0 6c c6 bc
       0.0049024015 -0.01596167 0.01087234 -0.024221778
0003b0 03 51 73 3c 08 ff ec bc f3 44 ba 3a 5e c8 ad 3c
       0.014850858 -0.028930202 0.0014211222 0.021213707
0003c0 fa b3 4a bc cd 9c 43 bc 3c c6 d8 ba 11 0d 2d bc
       -0.012372011 -0.01193924 -0.0016538571 -0.010562197
0003d0 5a 45 05 3d be b8 ff 3c dc 4e b5 3a df 74 9d bc
       0.032536842 0.031216022 0.0013832706 -0.019220768
0003e0 02 a4 82 ba 67 3a 8c 3c 96 53 63 3b 58 68 b2 bc
       -0.0009967091 0.017117692 0.0034687272 -0.02177827
0003f0 c4 eb 84 bc 6e 92 43 bc 45 9d 10 3c 04 1a 44 bb
       -0.016225703 -0.011936767 0.0088265585 -0.0029922733

base_model.model.transformer.h.0.attn.c_proj.lora_B.weight f4 [768, 4]
000000 00 38 74 38 ae 6f 4a 38 62 09 bf 37 22 e2 f0 37
       5.8226287e-05 4.8264563e-05 2.2773344e-05 2.871553e-05
000010 4f 7e a2 38 71 2d a2 38 e3 f5 85 b8 00 49 a1 38
       7.748289e-05 7.733226e-05 -6.387734e-05 7.6906756e-05
000020 7f 70 8d b8 6e b7 6f b8 60 f3 88 b8 c2 99 8c b8
       -6.744358e-05 -5.7152873e-05 -6.5303175e-05 -6.70436e-05
000030 dd 75 b0 37 98 bf 9c 38 87 72 97 38 e0 35 c1 b6
       2.103572e-05 7.474347e-05 7.2215735e-05 -5.75812e-06
000040 e5 11 50 38 87 c9 16 38 67 94 77 38 7d 95 0f 38
       4.960773e-05 3.5950474e-05 5.90276e-05 3.423308e-05
000050 43 29 62 38 35 9e 63 38 c5 5e 49 b8 d9 00 94 b8
       5.3921027e-05 5.426836e-05 -4.8010395e-05 -7.057348e-05
000060 2c b7 b4 37 ef 9b 5f 38 be 83 78 38 af 1d 87 b8
       2.1542968e-05 5.3312568e-05 5.9250502e-05 -6.4428306e-05
000070 6d 0e 9b 38 0b b9 83 38 83 36 1b b8 36 79 8a 38
       7.393663e-05 6.281034e-05 -3.7005648e-05 6.60293e-05
000080 ec 4f d2 b7 75 01 0c b8 d5 9a 87 38 52 75 9b 38
       -2.5071167e-05 -3.3379958e-05 6.466141e-05 7.4128286e-05
000090 18 d8 0f 38 ad f5 0a 38 5b ec a7 b8 f4 7f 49 38
       3.429511e-05 3.3130567e-05 -8.007205e-05 4.80413e-05
0000a0 aa 6e e3 b7 82 25 2e b8 82 2d cd b7 4c 3a 7e 38
       -2.711204e-05 -4.1519765e-05 -2.4459096e-05 6.0612612e-05
0000b0 6c a2 67 38 b5 f4 84 38 04 b0 70 38 e1 1c 96 38
       5.522596e-05 6.339831e-05 5.7384386e-05 7.1579365e-05
0000c0 3a c4 8c b8 56 10 58 b8 c8 9f 93 b8 54 44 c1 b7
       -6.71227e-05 -5.1513627e-05 -7.039268e-05 -2.303921e-05
0000d0 99 14 a1 38 74 7c 70 b6 b0 32 8b b8 37 b6 ac 38
       7.680915e-05 -3.5835228e-06 -6.637478e-05 8.235539e-05
0000e0 88 13 78 b8 0e 74 10 b8 d0 1b 88 38 63 13 8c 38
       -5.9145998e-05 -3.444036e-05 6.490166e-05 6.679331e-05
0000f0 21 b1 5a 38 cd 39 5c 38 00 b9 93 b8 1f c1 83 38
       5.2140214e-05 5.250592e-05 -7.043965e-05 6.2825384e-05
000100 bb 73 79 b8 63 b7 7e b8 d1 47 ee b6 a5 f4 4e b8
       -5.947401e-05 -6.072911e-05 -7.1013133e-06 -4.934207e-05
000110 a7 6a 8a 38 78 b3 73 38 86 f7 71 38 ea 6e 4d 38
       6.600218e-05 5.8102858e-05 5.76894e-05 4.8979105e-05
000120 96 89 80 b8 f6 03 7a b8 16 05 23 38 b9 ce 10 b8
       -6.129143e-05 -5.9608334e-05 3.8866965e-05 -3.45248e-05
000130 6e b8 71 38 04 f2 40 38 d4 af e8 b7 96 64 2f 38
       5.763064e-05 4.600176e-05 -2.7738432e-05 4.181693e-05
000140 26 0a b6 37 ba ff 5b 38 40 61 0c 38 52 51 30 b8
       2.1700816e-05 5.2451833e-05 3.3469172e-05 -4.2037405e-05
000150 39 0b a4 38 ec cd f7 37 9c 7f cb 37 f1 1a 3d 38
       7.82222e-05 2.9540584e-05 2.4258909e-05 4.5086203e-05
000160 3d 4d b6 37 cf dd b7 b6 82 75 18 37 3a e7 e5 b6
       2.1732058e-05 -5.479647e-06 9.087265e-06 -6.85165e-06
000170 f6 c5 27 b8 32 09 9d b8 44 13 4c 38 a5 59 66 b8
       -4.000027e-05 -7.488056e-05 4.8655333e-05 -5.491976e-05
000180 cf 1a 58 38 b1 26 75 38 d6 fa 83 b8 c6 0d a4 b8
       5.152338e-05 5.8448586e-05 -6.2932886e-05 -7.822695e-05
000190 c9 a6 78 b8 94 94 41 b8 c3 92 17 37 b5 ab 91 38
       -5.928314e-05 -4.615316e-05 9.034472e-06 6.946122e-05
0001a0 13 e7 83 b8 73 85 8e b8 73 8e 47 38 88 84 9e b8
       -6.289608e-05 -6.7959445e-05 4.7577963e-05 -7.558713e-05
0001b0 a6 94 90 38 9b d4 9d 38 25 03 95 38 e0 a4 8e 38
       6.894143e-05 7.525944e-05 7.1054594e-05 6.801798e-05
0001c0 e5 01 08 b8 43 84 18 b8 37 71 93 b8 f9 06 c7 b7
       -3.242669e-05 -3.6362802e-05 -7.030594e-05 -2.3725896e-05
0001d0 2a 80 81 b8 be 45 53 b8 67 09 88 b8 e0 39 34 b8
       -6.175072e-05 -5.0371273e-05 -6.486737e-05 -4.2969245e-05
0001e0 b9 61 77 38 86 38 7b 38 88 8c 1f b8 8c 47 54 36
       5.89804e-05 5.9895705e-05 -3.8039434e-05 3.1632107e-06
0001f0 9c 12 7b 38 28 38 ab b6 b8 19 1f 38 3b 1c 82 38
       5.9860395e-05 -5.1027346e-06 3.7932507e-05 6.2041414e-05
000200 3f d2 9c 38 07 a5 9f 38 98 71 0e 38 bc 6d 2f b7
       7.477821e-05 7.6124496e-05 3.396123e-05 -1.0456362e-05
000210 f6 76 7e b8 32 32 8e b8 ac d1 55 b8 eb df 72 b8
       -6.066911e-05 -6.780437e-05 -5.097843e-05 -5.7905836e-05
000220 1d 09 92 38 38 69 b1 b7 67 ab a9 b8 08 6b 99 38
       6.96352e-05 -2.114904e-05 -8.090474e-05 7.315545e-05
000230 5e 15 89 b8 8e 30 2b b8 9a 05 67 38 a8 80 98 38
       -6.536649e-05 -4.0814797e-05 5.507991e-05 7.271889e-05
000240 4b 53 9c b8 78 01 97 b8 17 9a 88 b8 f0 20 18 b8
       -7.454174e-05 -7.200515e-05 -6.513687e-05 -3.62703e-05
000250 b8 b0 9d b8 c7 31 9f b8 93 23 4c 38 25 16 9f b8
       -7.51926e-05 -7.5909826e-05 4.867052e-05 -7.5858356e-05
000260 ad 36 83 38 56 b0 37 38 b8 ee 88 38 90 0b 31 37
       6.256751e-05 4.3794826e-05 6.52945e-05 1.0552714e-05
000270 ff 9b 75 b8 35 a6 6b b8 54 3f 91 b8 de 1c 17 b8
       -5.8557835e-05 -5.618316e-05 -6.9259346e-05 -3.602809e-05
000280 39 1c 82 38 56 5a 4b 38 b2 3a 55 b8 41 f4 43 b8
       6.20414e-05 4.8483103e-05 -5.083782e-05 -4.6719102e-05
000290 54 ed 3b 38 18 1f 27 38 c7 d9 2a 38 32 a6 fc 37
       4.4805303e-05 3.984486e-05 4.073398e-05 3.0118132e-05
0002a0 a4 3d 94 38 cd af 80 38 95 10 92 b8 02 cb 5c 38
       7.0686714e-05 6.136261e-05 -6.964911e-05 5.2641153e-05
0002b0 6c 51 66 b8 cf eb 88 b8 37 14 a0 b8 eb 93 4e 36
       -5.4912103e-05 -6.528908e-05 -7.63316e-05 3.0782492e-06
0002c0 e1 81 a8 b8 d1 0b 8d b8 ad b5 7e 38 eb 1e b2 37
       -8.035056e-05 -6.725605e-05 6.0727518e-05 2.123365e-05
0002d0 a7 70 45 b6 05 3c da 37 75 98 6a 38 b3 dc 9a b8
       -2.942086e-06 2.6015574e-05 5.5931934e-05 -7.384401e-05
0002e0 17 97 83 b8 bd f9 6f b8 54 a5 6f b8 2d 8f 85 b8
       -6.2747094e-05 -5.7214627e-05 -5.7136014e-05 -6.368603e-05
0002f0 02 b5 28 b8 cc 71 e6 b7 bb f9 79 38 c8 52 9b 38
       -4.0222898e-05 -2.7471127e-05 5.9598806e-05 7.406395e-05
000300 e0 5c a2 b8 96 90 a2 b8 17 01 9a 38 de 2a 11 b7
       -7.742061e-05 -7.751693e-05 7.343495e-05 -8.652654e-06
000310 59 a2 94 38 10 e8 82 38 53 e5 53 b7 b6 8f a2 38
       7.0874295e-05 6.242108e-05 -1.2629974e-05 7.75153e-05
000320 55 1b 8d 38 42 e6 42 38 64 a0 8b 38 90 a5 0c 38
       6.728495e-05 4.646765e-05 6.6579116e-05 3.3532793e-05
000330 d4 f1 9a 38 64 24 9b 38 68 46 89 38 f6 33 a3 38
       7.388336e-05 7.397754e-05 6.545783e-05 7.782124e-05
000340 32 71 6d 38 c3 c0 1b 38 e0 22 80 38 b2 ed ea 36
       5.6610625e-05 3.7134403e-05 6.1100116e-05 7.001415e-06
000350 95 6c c4 37 8a 76 dd 37 51 c0 d4 37 de d3 36 38
       2.3415583e-05 2.6400452e-05 2.5361924e-05 4.3589498e-05
000360 98 c7 ac 37 2d 17 a3 b8 77 55 3b b8 9c 9f 4f 38
       2.059694e-05 -7.7767625e-05 -4.466387e-05 4.9501294e-05
000370 ce 6a 97 b8 3b 27 a2 b8 60 a0 66 37 ad 51 5a b8
       -7.220135e-05 -7.732069e-05 1.37464085e-05 -5.2051317e-05
000380 bb 1e 55 38 8b e4 82 38 e0 8b 9d 38 9e 6c 8f 38
       5.0811777e-05 6.2414525e-05 7.512397e-05 6.839003e-05
000390 d5 d0 8d 38 9e 3c f2 37 85 80 9a 38 0f 69 36 38
       6.762302e-05 2.8876875e-05 7.367231e-05 4.3490025e-05
0003a0 0e d9 95 b8 80 c8 84 b8 45 8e 88 b8 50 1e 88 b8
       -7.145303e-05 -6.3315965e-05 -6.511485e-05 -6.4906315e-05
0003b0 cd 9f 7a b8 b1 da 89 b8 33 e9 2f b8 be 86 80 b8
       -5.975347e-05 -6.5734035e-05 -4.1940435e-05 -6.128613e-05
0003c0 9c d6 67 38 e1 47 87 38 41 a1 6f 38 0b 49 69 38
       5.5274562e-05 6.45069e-05 5.713222e-05 5.5619555e-05
0003d0 c8 03 68 38 d3 0a 5f 38 b6 57 8c 38 9d 13 07 38
       5.5316632e-05 5.3177424e-05 6.692058e-05 3.2204774e-05
0003e0 7f ad 72 38 da ff a0 38 48 00 37 38 2e bb 97 38
       5.7858877e-05 7.6770506e-05 4.3630862e-05 7.235106e-05
0003f0 cf dc 8a 38 40 fd 7e 38 ce 7d ad b8 bc 54 ac 38
       6.6214816e-05 6.0794177e-05 -8.272716e-05 8.217382e-05

base_model.model.transformer.h.0.mlp.c_proj.lora_A.weight f4 [4, 3072]
000000 ad 74 35 3c 08 d9 87 3c 27 38 2b bc 46 6a 51 3b
       0.011075181 0.01658298 -0.0104503995 0.0031954213
000010 31 ab 8a 3c 3f 1b 31 bb 01 b7 71 bc 47 0d 25 bc
       0.016927334 -0.0027024297 -0.014753104 -0.010073966
000020 f0 86 6f bc 1e f5 26 bc 68 58 6b bc ac e8 2c 3c
       -0.014619574 -0.010190276 -0.014364339 0.01055352
000030 84 5c 5f bb 98 56 34 bb 4c 00 43 3c 1c a7 d4 bb
       -0.0034082243 -0.0027517434 0.011901926 -0.0064896476
000040 49 ed 6c 3c e1 6f 18 bc 60 a9 13 bc 7c 16 4b bb
       0.01446087 -0.009304018 -0.00901255 -0.0030988744
000050 3a 03 65 bb c4 20 09 bc bc da d4 bb c9 fd 08 3c
       -0.003494455 -0.008369628 -0.0064958017 0.008361288
000060 c2 16 91 3c fe 9b 8b bc 42 94 f4 bb 72 8a 29 bc
       0.017711047 -0.017042156 -0.007463963 -0.010347949
000070 9d 8a 36 3c 13 3c be bb 83 46 2a 3c 2e 5b 14 3c
       0.011141446 -0.0058055012 0.010392788 0.009054942
000080 46 e3 41 bc 9d ab 32 bc fe be 8e bc 15 67 e9 ba
       -0.011833971 -0.010905174 -0.017425057 -0.001780721
000090 08 4c 25 bc 3c 76 8e bc 1c 03 49 bc e6 09 1e 3b
       -0.010088928 -0.017390363 -0.012268808 0.0024114787
0000a0 69 cc 8b 39 c5 19 0c 3b 95 5a 7d 3a 2d 2f 8e bc
       0.00026664443 0.0021377665 0.0009664682 -0.01735648
0000b0 1a b5 5d bc 08 9a 78 3c bb 54 3b 3b 88 05 29 bc
       -0.0135319475 0.015173443 0.002858444 -0.01031626
0000c0 27 0d bb b7 7a 03 5c bc 33 ea 3d bb 96 bf 8a 3c
       -2.2298262e-05 -0.013428563 -0.0028978705 0.016937058
0000d0 99 82 ab bb 9f 4d 95 3b 31 87 42 bc 9d ca 59 3c
       -0.0052340743 0.0045563723 -0.011873052 0.013292936
0000e0 5c ea 85 3c bf 4f 89 3a 4c 4e 0c bc f2 1f 42 bc
       0.016347103 0.0010476037 -0.008563589 -0.011848437
0000f0 2e b0 83 bb 3d 4c 42 3c 2d bd b3 bb 8e f5 28 3c
       -0.004018805 0.011858997 -0.005485198 0.010312451
000100 47 4f ca bb 49 b2 ed bb 45 ce 55 bc ac 43 35 3a
       -0.0061740014 -0.0072539193 -0.013049667 0.0006914686
000110 42 87 34 3c 55 6e 11 bc 04 1f 1b 3c 58 a3 7f 3c
       0.011018576 -0.008876403 0.009467844 0.015602909
000120 62 c7 cd bb fe 06 4d 3c e7 c2 92 3c 89 ba b3 bb
       -0.006279872 0.012513874 0.017915202 -0.005484883
000130 d4 9c cf 3b fb 70 a5 bb 97 a3 89 3c 68 30 03 ba
       0.006335834 -0.0050488687 0.016801639 -0.00050044665
000140 a3 32 45 bc 0e 9e 26 bc 10 1e e6 3b 2a 19 b6 3b
       -0.0120359985 -0.010169519 0.0070226267 0.005557199
000150 9c bb 42 bb 8e 84 89 bc e9 c4 2d 3c ca c4 fd b9
       -0.0029713875 -0.01678684 0.010606029 -0.0004840254
000160 5b 89 95 3b 9d f3 48 bc 27 3a 64 37 d8 d9 70 3c
       0.004563493 -0.012265113 1.3603399e-05 0.0147003755
000170 a3 51 de bb 39 23 62 3b 8e 2b 1e 3c 85 7c 94 3b
       -0.006784634 0.0034505858 0.009653939 0.0045314454
000180 64 f9 3f 3c 3f 17 97 bb 2a da 0a 3c e6 e4 85 bc
       0.011717174 -0.0046109254 0.008474866 -0.016344499
000190 63 79 8c b7 a6 c8 2e 3c a1 7d 0b 3c 27 73 5e bc
       -1.6745826e-05 0.0106679555 0.008513839 -0.013577259
0001a0 d5 0f be ba bc ce 94 3b 16 ed 4f 3c 8d d0 dd bb
       -0.0014500568 0.004541246 0.012690803 -0.006769246
0001b0 52 fa 67 3c 19 5d a8 bb ba dc 80 3c 9c 7d 2a 3b
       0.014158802 -0.005138051 0.01573025 0.002601481
0001c0 9e 6d 7b bb a5 52 59 bc 0e 61 0b bb bc 60 12 3c
       -0.0038364897 -0.013264333 -0.0021267566 0.008934196
0001d0 c5 ec 05 bc 3d be b5 39 19 27 89 3c a3 4c 79 bb
       -0.008174126 0.0003466475 0.016742276 -0.0038040064
0001e0 7f d3 2b 3c 5f 1a 02 3c 98 3c 47 3c bf c0 c0 3b
       0.010487436 0.007940858 0.012160443 0.005882352
0001f0 29 ba 93 bb 39 00 fb 3b 43 cb b9 bb 45 a2 60 bc
       -0.004508276 0.0076599387 -0.0056699826 -0.013710563
000200 5e 96 f4 3a cf f2 8f bc d2 d6 0c 3c 60 eb 17 bc
       0.0018660536 -0.017571835 0.008596139 -0.009272426
000210 9a 89 21 3c a6 45 6c 3c 5a 1f 2e bc fe 0a e0 3b
       0.009859467 0.014420902 -0.010627592 0.006837248
000220 6e a0 88 bc 74 34 20 3c 79 f8 48 3c e8 d9 8c bc
       -0.016678061 0.009778131 0.012266272 -0.01719375
000230 0c f3 0b bc bc e7 aa b9 48 c9 22 3b ff d2 19 3c
       -0.008541834 -0.00032597582 0.0024839211 0.009388684
000240 da 22 10 3c f0 72 1f 3b 08 c2 a1 3a c6 0e 85 ba
       0.008797372 0.0024329983 0.0012341151 -0.0010151498
000250 96 41 80 3c 7b 5c 79 3c 3e 97 a1 3b 63 b4 43 bb
       0.015656274 0.015219803 0.0049313596 -0.0029862158
000260 9c 78 69 bb 5c 85 c7 39 47 d7 16 3c 37 e6 e6 3b
       -0.0035624867 0.00038055598 0.0092066 0.0070464867
000270 80 07 36 bb 44 37 3f bc ce e1 89 3c 9b ba 72 bc
       -0.0027775466 -0.011670891 0.016831305 -0.014814998
000280 5d ec d3 3b ae d3 18 bc 50 6a 30 3b 3a 1d 47 bc
       0.0064673857 -0.009327812 0.0026918836 -0.012152964
000290 a0 ee e0 3a 6a 1d 89 3c 58 f2 b6 bb c4 99 91 3c
       0.001716096 0.016737659 -0.005583089 0.017773516
0002a0 eb e0 74 3c f4 63 3c 3c 71 e2 4f 3b 54 7b 6b bc
       0.014946203 0.01149844 0.0031720663 -0.014372665
0002b0 26 ab c1 3b e8 2a 08 3c d0 7b 00 3b ff 74 25 bc
       0.005910295 0.008311011 0.0019605048 -0.010098695
0002c0 da 90 68 3c 1b 07 d0 bb c7 41 c1 b9 51 50 8b bc
       0.014194692 -0.0063485033 -0.00036860837 -0.017006071
0002d0 0a 26 7b 3c b8 1e d1 ba 9a e1 f8 39 4b d2 5c 3c
       0.015328893 -0.001595459 0.00047470332 0.013477872
0002e0 2b 73 81 3c 93 b0 3d 3c 42 dd 03 bc 3e fc 68 bc
       0.015801987 0.011577743 -0.008048357 -0.0142202955
0002f0 0b b4 86 3b e9 e1 b8 3b c6 23 8d bc 86 db 9a 3b
       0.0041108183 0.005642165 -0.017228972 0.0047258763
000300 24 ef 2f bc 3e 36 59 3c 62 0c aa 3b 61 fd 0a 3c
       -0.010738168 0.013257561 0.0051894644 0.008483262
000310 c0 fc 66 bc 3c 3f 8f 3c 73 45 5e 3b c9 6a 71 bc
       -0.014098346 0.017486207 0.0033915907 -0.014734932
000320 76 a5 1a bc 88 ff 35 bc 08 c7 64 3b 8e ac 94 3a
       -0.009438863 -0.011108287 0.003490867 0.0011342929
000330 e5 11 cd bb 76 c3 4c 3c ad 84 1b 3a 42 4e 09 3c
       -0.0062582367 0.012497773 0.0005932551 0.0083804745
000340 76 77 6a bb 37 df 20 bc f3 20 8d 3c f3 c0 d3 3b
       -0.003577677 -0.009818844 0.017227625 0.0064622103
000350 f0 6e e2 3b 0f 03 8b 3a c0 00 88 3b 77 4e 47 ba
       0.0069101974 0.001060577 0.00415048 -0.000760294
000360 4e ff 4f 3c 0c 7f d5 ba 4c ef 84 3c 79 43 90 bc
       0.012695147 -0.0016288473 0.016227387 -0.017610298
000370 c4 6e 83 3c 2f fe 6a bc 6c c2 89 bc db 41 cc bb
       0.016044028 -0.014342829 -0.01681634 -0.0062334365
000380 f8 b7 73 bc 29 18 e7 bb 04 8e 5f 3b ce f9 7e bc
       -0.014875405 -0.0070524407 0.0034111748 -0.015562488
000390 99 c7 44 bc 7a f4 42 3c 13 5f 89 bb 06 c5 35 39
       -0.012010478 0.011899108 -0.004192242 0.00017334902
0003a0 74 2a 1c bc bf 20 09 bc 97 d8 90 bc d2 12 1c 3b
       -0.009531606 -0.008369624 -0.017681403 0.0023814929
0003b0 06 e2 82 bb a7 17 dd bb 9c 7b 68 bc 12 80 07 3c
       -0.0039942292 -0.0067472043 -0.014189627 0.00827028
0003c0 1d 5b 31 3c b1 0c 03 3c 4f d5 01 3c ea 8f 5d 3c
       0.010824946 0.007998631 0.007924392 0.013523081
0003d0 b9 8a 19 3c b1 20 97 bb 7a fd 7b 3c 3a 2f 0d 3c
       0.009371453 -0.0046120514 0.015380258 0.008617217
0003e0 62 ba 8c bc 53 86 1c bc 6a 65 90 3c de 2b 2d 3c
       -0.017178718 -0.00955351 0.017626483 0.010569541
0003f0 ed 45 14 bc 63 21 54 3c 49 69 4a bb fa 9a 4d bb
       -0.009049875 0.012947413 -0.0030885509 -0.003137289

base_model.model.transformer.h.0.mlp.c_proj.lora_B.weight f4 [768, 4]
000000 6e 10 87 38 d5 10 91 b8 58 7d c3 36 78 f5 8a b8
       6.440362e-05 -6.917274e-05 5.826045e-06 -6.626075e-05
000010 94 b9 8a 38 29 32 1a b8 d8 5d bd 37 b9 9e e4 b7
       6.6149194e-05 -3.6763176e-05 2.2574255e-05 -2.7253629e-05
000020 e7 5a 49 38 cd 03 1e 37 f0 ec 85 38 54 33 47 b8
       4.8006794e-05 9.418419e-06 6.386067e-05 -4.74931e-05
000030 0b 82 36 38 a1 c0 48 b8 28 ab e1 b6 c2 f6 19 38
       4.3513293e-05 -4.7863115e-05 -6.7254477e-06 3.6707854e-05
000040 a4 35 5b b8 db ca 67 38 f5 0f 35 b8 0b 34 42 b8
       -5.2263626e-05 5.5263616e-05 -4.3168624e-05 -4.6301673e-05
000050 cc 8f 24 37 08 fe 34 b8 c6 0d a9 38 7f 74 37 b8
       9.808642e-06 -4.315193e-05 8.0611135e-05 -4.3739095e-05
000060 74 04 71 b8 24 5a 73 38 bf b6 82 38 ca d3 85 b8
       -5.7463025e-05 5.8019665e-05 6.232922e-05 -6.381383e-05
000070 12 df 85 b8 72 4d a5 b8 fb 67 85 b8 1a b6 a3 38
       -6.383484e-05 -7.8822384e-05 -6.361302e-05 7.806365e-05
000080 78 c5 9e 38 97 07 0f b8 fc cb 76 b8 ef 4a 5a 38
       7.5708085e-05 -3.4100925e-05 -5.8840946e-05 5.2045038e-05
000090 01 16 72 38 9b 6c 48 b8 eb d1 a9 b8 8d 12 6a 38
       5.771779e-05 -4.7784863e-05 -8.097648e-05 5.5807224e-05
0000a0 e2 a4 8b b8 40 35 20 38 24 0d 45 37 a5 c6 8f 38
       -6.658748e-05 3.8196566e-05 1.1745175e-05 6.855772e-05
0000b0 be a9 95 38 a1 7a 9f b8 c0 f1 08 34 7f 36 7a 38
       7.1364906e-05 -7.604552e-05 1.2753935e-07 5.96554e-05
0000c0 df 63 77 38 d4 29 5d b8 f6 ea d2 36 3c bb 27 b8
       5.89824e-05 -5.272946e-05 6.2858408e-06 -3.999028e-05
0000d0 1b 07 2c 38 3b 46 9f b8 3a ca 2c 38 d5 7d 94 b8
       4.1014613e-05 -7.594792e-05 4.1196334e-05 -7.080628e-05
0000e0 2f 8c 84 b8 46 1c 84 38 3d 2b 8b b8 8d 1c 6c b8
       -6.320362e-05 6.299517e-05 -6.63609e-05 -5.6293375e-05
0000f0 c4 63 a7 38 4e 42 8a b8 86 f3 4a 38 06 6e 62 b8
       7.981763e-05 -6.592703e-05 4.8387352e-05 -5.3985066e-05
000100 a2 32 8f b8 8c 59 89 38 c7 ad 3c b8 14 52 8c b8
       -6.8282025e-05 6.5493485e-05 -4.4984536e-05 -6.6910085e-05
000110 d2 4f 88 38 2c 28 62 b8 8a eb f4 37 af 3d 8a b5
       6.499853e-05 -5.3920012e-05 2.9196748e-05 -1.0299754e-06
000120 9a f6 1f b7 ee 4a 7e b8 14 88 95 b8 a1 4a 56 38
       -9.534555e-06 -6.0628103e-05 -7.13022e-05 5.109108e-05
000130 d9 45 ce b7 4d 52 8d 38 a1 ea 98 38 be 3b 9f b8
       -2.4589639e-05 6.738734e-05 7.291628e-05 -7.592839e-05
000140 d4 f4 66 38 bf cc 33 38 c2 94 06 38 89 96 77 b8
       5.5064287e-05 4.286761e-05 3.208663e-05 -5.9029586e-05
000150 74 c8 fd 37 60 88 8b b8 a5 ab 74 38 0b c3 33 b8
       3.0253294e-05 -6.653438e-05 5.833399e-05 -4.2858574e-05
000160 7f e8 7c 38 c3 1f 2e 38 59 3f bf 37 87 47 26 b8
       6.029801e-05 4.1514413e-05 2.2798473e-05 -3.96441e-05
000170 c1 f6 20 38 30 4f 8e b8 0a 58 95 38 7f 0c 9b b8
       3.837678e-05 -6.7858375e-05 7.121272e-05 -7.3933035e-05
000180 32 ef 74 38 72 6a 50 b8 61 6c 3a b6 39 39 b1 b6
       5.83969e-05 -4.96902e-05 -2.7779245e-06 -5.2816727e-06
000190 c4 78 1d b8 b0 fb a8 b8 43 5d 59 b8 9b 78 83 38
       -3.754419e-05 -8.057745e-05 -5.182369e-05 6.269031e-05
0001a0 bd 8f 8c b8 6c 6b 14 38 e3 90 a5 b7 5e 25 42 b8
       -6.7024936e-05 3.5385994e-05 -1.9737001e-05 -4.6288005e-05
0001b0 6e 1d a3 b7 0e d5 37 b6 f4 59 a5 b8 76 d9 6d 38
       -1.9444818e-05 -2.739314e-06 -7.884568e-05 5.670773e-05
0001c0 09 75 8b 38 7a 76 90 b8 e2 37 8b 38 ea 1d 4f b8
       6.649836e-05 -6.888523e-05 6.6384455e-05 -4.9380506e-05
0001d0 91 15 8f b8 88 40 80 38 cf 5e 6c b8 0f e0 3a 38
       -6.8227884e-05 6.1155355e-05 -5.6355082e-05 4.4554527e-05
0001e0 4d 66 83 b8 02 e5 6b b8 11 02 ad b8 7f e4 96 38
       -6.265622e-05 -5.6241646e-05 -8.249668e-05 7.195118e-05
0001f0 cd 46 4b b8 3b 8f a1 36 3a e7 95 b8 69 c2 68 38
       -4.846491e-05 4.814848e-06 -7.147943e-05 5.549417e-05
000200 9d a6 a3 38 5b 23 98 b8 ac 23 97 b8 2d b9 5b 38
       7.80348e-05 -7.25451e-05 -7.2068855e-05 5.2386127e-05
000210 0a 5d 67 38 8d e6 80 b8 27 f7 29 38 81 b0 7e b8
       5.516134e-05 -6.146459e-05 4.052292e-05 -6.07227e-05
000220 19 00 75 38 7b ff 44 b8 8a 62 6b b8 c5 f5 83 38
       5.8412643e-05 -4.6967976e-05 -5.6120138e-05 6.292345e-05
000230 2e d8 98 38 d6 74 d3 b6 60 83 3a 38 26 6e 6d b8
       7.2881914e-05 -6.3018915e-06 4.446821e-05 -5.6607787e-05
000240 18 f5 95 38 99 2b 51 b8 a4 a1 7c 38 86 7e 89 b8
       7.150526e-05 -4.9870087e-05 6.023202e-05 -6.556236e-05
000250 86 ab 19 b8 8b a4 80 38 d0 fa 9b b8 aa 0b 7b b8
       -3.6637786e-05 6.134164e-05 -7.4376934e-05 -5.9853926e-05
000260 e2 4c 58 b8 a5 f4 9e 38 5c 1b 83 38 a9 bd 8f b8
       -5.1570016e-05 7.579596e-05 6.251663e-05 -6.854098e-05
000270 7c b4 a5 37 4c c5 29 38 45 f3 8b 37 8a 8f 94 37
       1.9753577e-05 4.0476487e-05 1.6683372e-05 1.7709815e-05
000280 db a6 a2 38 5a 75 94 b8 d3 44 98 38 65 46 48 38
       7.755841e-05 -7.0790484e-05 7.260744e-05 4.7749276e-05
000290 7f 37 a6 38 5a a3 93 b8 86 db 91 38 a1 20 4f b8
       7.925834e-05 -7.039933e-05 6.955028e-05 -4.9383034e-05
0002a0 a9 95 33 b8 28 73 28 37 44 93 11 38 ba 7c 86 b8
       -4.2816308e-05 1.0040392e-05 3.4707846e-05 -6.41285e-05
0002b0 a3 1a 93 38 cc 9c a7 b8 51 1e 97 38 54 60 70 38
       7.014468e-05 -7.992386e-05 7.205888e-05 5.731017e-05
0002c0 fc 76 93 38 ce 0b 6a b8 b7 84 52 38 23 2c 16 38
       7.031669e-05 -5.580094e-05 5.0191502e-05 3.5803892e-05
0002d0 6c 0e 8b b8 30 f3 7f 38 4d 70 60 b8 bf 3b e4 36
       -6.630723e-05 6.1023224e-05 -5.351035e-05 6.801885e-06
0002e0 bf 33 d5 37 ff 6d 12 b8 66 ac 80 b8 45 ea 91 38
       2.5415675e-05 -3.4911554e-05 -6.135627e-05 6.957775e-05
0002f0 94 2f 88 b8 11 8b 96 38 5d a5 58 b8 aa fe 00 b8
       -6.4938475e-05 7.1784605e-05 -5.165242e-05 -3.0754753e-05
000300 15 d6 a0 b7 2b 5d 4d 38 34 91 a8 38 a6 11 a7 b8
       -1.9173176e-05 4.8962578e-05 8.0379104e-05 -7.966468e-05
000310 05 16 97 b8 f3 53 2c b8 f0 c9 a6 b8 b3 f0 87 38
       -7.2043425e-05 -4.108618e-05 -7.9531106e-05 6.482135e-05
000320 8e ae 4b b8 28 c4 8a 35 7e 46 75 38 94 64 6f 38
       -4.856154e-05 1.033889e-06 5.8478203e-05 5.707571e-05
000330 1d 4e 9e b8 e0 0a ea b7 ae c5 a2 b8 77 bd 13 38
       -7.548577e-05 -2.7900038e-05 -7.761583e-05 3.5223984e-05
000340 73 75 4a 38 1c d7 cc b6 d9 35 27 b7 f9 ae 11 38
       4.8269936e-05 -6.104716e-06 -9.966513e-06 3.473365e-05
000350 ae 26 94 38 ad 8e 75 b8 0c 95 30 38 48 4a ac b7
       7.0643946e-05 -5.854543e-05 4.210048e-05 -2.0538588e-05
000360 a7 74 a8 38 ab ab a3 b8 8d c8 76 38 0e 39 9c b8
       8.0325925e-05 -7.804421e-05 5.8837748e-05 -7.449287e-05
000370 25 2b 96 b7 09 76 58 38 c3 67 3f b8 75 a3 94 b8
       -1.7901484e-05 5.1608342e-05 -4.5634584e-05 -7.087636e-05
000380 94 ba 8e b7 a4 39 6d b8 f6 21 8f b8 f1 a1 92 37
       -1.7014601e-05 -5.6558885e-05 -6.825097e-05 1.7479966e-05
000390 29 34 81 b8 54 a4 92 38 e4 34 44 b8 b9 90 8a 38
       -6.160915e-05 6.992431e-05 -4.67793e-05 6.6073095e-05
0003a0 25 38 8a 38 c9 20 6c b8 b1 f3 c3 b7 a8 81 5d 38
       6.5908105e-05 -5.629732e-05 -2.335929e-05 5.2811258e-05
0003b0 01 81 a5 b8 51 c8 fe 37 4e 75 5e b6 1e 2a 93 37
       -7.891842e-05 3.037244e-05 -3.3148858e-06 1.7543378e-05
0003c0 76 4c a6 b8 75 cb 54 35 2f 3c 3b b8 d9 db 21 38
       -7.929739e-05 7.9272223e-07 -4.4640325e-05 3.859014e-05
0003d0 31 ec 3a 38 fe 72 83 b8 ea d3 00 b7 74 3a 8d 38
       4.4565826e-05 -6.267986e-05 -7.678735e-06 6.734292e-05
0003e0 d0 e3 88 38 d4 18 92 b8 a2 a3 94 b8 7d 8c 7c 38
       6.527419e-05 -6.966447e-05 -7.087669e-05 6.0212322e-05
0003f0 94 ed 52 b8 59 d9 a5 36 bf 82 6b b8 88 29 60 38
       -5.0289163e-05 4.942686e-06 -5.6150133e-05 5.344444e-05
